best_model.pth (torch, 6501 bytes, 7 tensors)

theta_1 f8 [13, 15]
000000 7f 34 10 21 3f 44 d7 bf 9a 1d 52 cb 2c 81 d8 bf
       -0.36354044178808204 -0.38288421493094804
000010 2e c2 c0 77 d7 2b d9 bf 7e 5a 31 b3 fc f1 d8 bf
       -0.3933008832418946 -0.3897697210244714
000020 b0 17 5e 46 44 08 84 bf 24 24 6a f6 ab 42 9a 3f
       -0.009781392476508305 0.02564495746131369
000030 9c 58 2d b7 db 03 d8 3f c3 8d e5 16 8c ff d7 3f
       0.37523548973457266 0.37497236476903256
000040 d0 e2 ec b0 49 78 db bf 55 48 6d 33 4c c8 d2 bf
       -0.42921678808083374 -0.2934751989570306
000050 cc 61 0b 02 97 97 d1 bf 75 de 73 76 c9 c5 c4 bf
       -0.27487731170324703 -0.16228597911662104
000060 b0 8a 81 03 b9 0d d7 3f 8e 2b 69 b0 f7 b7 d6 3f
       0.36021256773362165 0.35497848727816794
000070 5a 24 c3 a1 32 dc c0 bf 10 9e b3 6f 97 c7 c2 3f
       -0.13171990297840602 0.14671605066472226
000080 d9 73 d0 f5 e8 e2 d5 bf e7 60 89 f3 32 c5 c1 3f
       -0.34197448735522823 0.13883053676068544
000090 a9 bc 9d f6 20 2f c0 3f 26 bb 4d 1c 53 56 b8 bf
       0.12643825570873915 -0.09506720963484536
0000a0 fb 1d 48 d5 03 29 d6 bf 8e 63 75 43 ae 36 c0 3f
       -0.3462533552960562 0.12666872304796722
0000b0 85 4b 4b 17 e1 f3 cb bf 42 d0 d4 91 99 13 c7 bf
       -0.21838010442169434 -0.18028564091366844
0000c0 a8 f9 89 ed fd 38 d9 bf b1 ec 2f c3 1d 5c d8 bf
       -0.3941035098759138 -0.3806223302960446
0000d0 08 31 3f b8 6a 80 d6 3f 0e e0 72 9f 25 5d d3 bf
       0.35158794396262794 -0.3025602395168797
0000e0 13 ac 25 d7 53 f8 c5 bf e9 e9 df 68 88 bf d8 bf
       -0.17164085393173475 -0.3866902374426489
0000f0 1c 0c ec e8 6c 11 c8 bf 93 61 f5 b6 bf c6 ca bf
       -0.18803178189418268 -0.2091903346397542
000100 7c 62 f0 44 de 35 d3 bf df d2 19 96 8d 47 c3 bf
       -0.3001628564102601 -0.15062112645286782
000110 5f ef 3b ae e5 95 b1 3f 93 11 bb 22 2e 3c c1 3f
       0.06869349960100866 0.134649054487579
000120 fd 9e 4d 41 65 f6 d1 3f e1 00 ee 6f e9 a1 de bf
       0.28066378953234034 -0.4786323159278379
000130 17 03 e0 5e 6a 5e c3 bf 6c 93 bc ff 96 00 96 bf
       -0.15131883270807897 -0.021486625060009798
000140 a9 a5 92 1f 1d 69 dc 3f 94 1a 81 9a b1 6a d9 bf
       0.44391563494954284 -0.39713707054435443
000150 2b e5 fb db 66 5e a9 bf 22 20 d5 61 3a 33 c3 bf
       -0.049548353532325194 -0.15000085617998687
000160 26 eb 00 9b 9b cd d9 3f ab 65 c9 8e 7b 37 d3 3f
       0.40317430626935147 0.3002613920594636
000170 30 34 4e bc d9 cd b1 bf d6 fb 9a d3 a0 87 da bf
       -0.06954727980901576 -0.41452809013929703
000180 ef ce 92 1a d8 5e c8 3f 48 20 79 19 5d 2f 9c 3f
       0.19039441392452924 0.027524428062207812
000190 f5 11 d1 6e c2 9d ce 3f ba 62 45 f6 4d 83 b1 bf
       0.23918943797083583 -0.06840979826427943
0001a0 ce 76 5c ad 1e 11 db bf f4 5e 2f b3 6a e0 ae 3f
       -0.4229199116688108 0.0603059142810575
0001b0 5b 72 52 15 16 f8 a2 3f 2c f5 65 48 c4 4f e0 3f
       0.03704899797705671 0.5097371496227985
0001c0 02 78 c3 e0 f8 b5 d2 bf ea f8 2c ed 24 d7 bd bf
       -0.2923567004162352 -0.11656409063741405
0001d0 59 4b 9b 47 94 3e c4 3f 95 65 b4 53 37 97 ca bf
       0.15815976616303365 -0.20773974978582702
0001e0 a8 6e 12 cc 37 11 da bf ea 4d 28 d0 e6 f2 cd 3f
       -0.40730090073496195 0.23397526897370763
0001f0 e4 ac e9 50 7c 53 d1 bf fa e7 84 0c 57 fd c1 3f
       -0.27072055722847055 0.14054382430350626
000200 10 47 af ba f2 94 c6 bf 82 44 81 91 86 85 7a bf
       -0.1764205371423988 -0.006474996240357746
000210 78 b4 13 43 60 11 b1 3f 28 ea 96 a4 eb d1 d4 3f
       0.06667138707753562 0.3253125293082655
000220 3a 20 fc 85 19 5e c0 3f 88 61 50 ec 30 63 d2 bf
       0.1278716949675543 -0.2873041446450988
000230 7e ee ef 4b ea 9c b8 3f 0d 5f 83 b4 8e c8 d8 3f
       0.09614433626114224 0.38724105480422183
000240 91 57 ea a7 ba 4c c4 bf 51 81 3f 20 0e db d6 bf
       -0.15859158705705714 -0.35712006711221017
000250 4f ff 3e 17 59 80 bf 3f a1 ed 0c 63 79 58 da bf
       0.12305218522578552 -0.41165003464603883
000260 8c 82 e1 af 86 e3 b7 3f b9 47 f6 7e 20 96 b6 3f
       0.09331552309005015 0.08822825526865942
000270 c9 1a 0d 80 8b bd d2 bf 04 dc a5 29 5f 70 cd bf
       -0.29281890397070903 -0.22999181302631666
000280 af 21 45 77 8e 2a c6 3f e7 70 d9 2a 49 0b 9d bf
       0.173173721539809 -0.02836336444885115
000290 54 33 22 65 27 69 be 3f bc 96 cc 20 89 e6 d5 bf
       0.11879202097970892 -0.34219577982944904
0002a0 e9 d6 9a 56 00 71 d8 3f e1 a9 d7 2f 70 48 df 3f
       0.3818970533132942 0.48879627868759995
0002b0 a6 ea 7c b1 6a bc d2 bf 2a cd 23 66 64 c1 ca 3f
       -0.2927500470429244 0.2090268610696538
0002c0 5b 6e b2 1d 28 88 da bf e1 e3 e3 52 9c 7a d8 bf
       -0.4145603456506472 -0.3824835595583505
0002d0 06 2e 05 6f 22 2f dc 3f 8e d7 89 5c 0c 86 cc 3f
       0.44037686197108916 0.2228408290717962
0002e0 8b 54 65 4c d3 5c db bf 9a 40 7b cf b5 13 93 3f
       -0.4275406118443434 0.01862987593523311
0002f0 82 14 c8 f7 3a 21 d7 3f 36 99 99 fc 60 5d c2 bf
       0.361403219198401 -0.14347469648346028
000300 2e 92 8b 19 ee ab 88 3f 76 51 7b 28 f8 51 a8 3f
       0.012046680597856154 0.0475003766456749
000310 6b d6 25 c2 7d a9 dc bf f4 fb c0 df 20 2c de 3f
       -0.44784492454286945 0.4714433846565378
000320 0f 20 c8 a6 3a 55 b3 bf c5 4c b8 d8 a9 89 c5 bf
       -0.07551924297160915 -0.16826365549113667
000330 34 31 85 1a 0c 8c d4 3f 51 19 4e 25 fc 69 ab 3f
       0.32104780759688656 0.05354297595390512
000340 00 64 93 b4 84 98 c3 3f 15 a9 60 be 45 de a1 3f
       0.1530919915883544 0.034898929109049494
000350 dc cf ce ca 2c 55 74 3f 34 9d 75 3a a1 1a c5 bf
       0.004964041680910438 -0.1648751769491611
000360 7d f3 17 e8 47 36 be 3f 72 aa 70 2d 7b b7 bd 3f
       0.1180157605776468 0.11608095034959279
000370 52 1c 1c 9e 2b 6a a4 bf a4 53 34 96 22 a9 d5 bf
       -0.03987251572657925 -0.33844818752668915
000380 bf 21 a0 b7 70 a2 dd bf 4c ea b0 fe 9a 02 de bf
       -0.4630395692079467 -0.4689090239732294
000390 ae 16 3b 46 d6 e7 cc bf 85 7a 2b 72 7b c0 d1 3f
       -0.2258251040386105 0.2773731818141772
0003a0 0c 64 62 de 43 ff d5 3f e3 10 52 6c cb 37 d7 bf
       0.34370514600010504 -0.3627804334466999
0003b0 65 73 3a 54 eb 04 de 3f 02 8f f8 11 83 ea bc 3f
       0.46905024743482776 0.11295336903327427
0003c0 ce 7b 66 9a a7 a0 c6 3f 93 34 ea 1c 57 f7 cf bf
       0.17677779234960983 -0.24973572646959905
0003d0 db 2d 3e d2 ba 7b d0 bf 64 07 80 cf 58 99 ac bf
       -0.2575518658784099 -0.055857444123843775
0003e0 83 f0 d5 0c 27 7a cf 3f ba 33 0d 13 35 fd cf 3f
       0.2459152996706316 0.24991477422955005
0003f0 8f 83 25 07 bd 07 ce bf 66 20 df 46 25 37 cb 3f
       -0.2346111569304665 0.21262041054274333
000400 fe e6 9f 62 32 2f ce bf 21 1a ba 4e 4e 70 da bf
       -0.2358153325620193 -0.4131046074693661
000410 70 ec 6c 1f 46 49 d8 3f bf 90 02 4f 02 32 d3 3f
       0.3794722849740486 0.2999273082334745
000420 0d dc b8 91 3e f7 86 3f 46 13 b5 66 30 38 98 bf
       0.011213768789373213 -0.02365184428096547
000430 80 91 b4 a3 0f 69 da bf 4e dc 64 14 8b 92 db 3f
       -0.41266242014742005 0.4308192919883752
000440 30 a5 4e e9 5c 59 9c 3f d8 fa 3f 22 24 cd cb 3f
       0.027684642543737314 0.21719791099891128
000450 50 f9 4b 69 7a 6c c9 3f 79 3b a1 e9 9d 0d d4 bf
       0.19862299100345604 -0.3133311063328886
000460 03 83 8c 70 56 1d d5 bf 2d 6e 62 39 d5 6b b8 3f
       -0.3299156283483599 0.09539539957989325
000470 60 30 16 a4 da 8f c5 bf 82 b7 71 8b 35 87 d4 bf
       -0.16845257770580968 -0.32075251214597966
000480 98 a5 2b 4c e3 ba b6 bf dd df ad a2 62 98 b5 3f
       -0.08878918275481451 0.08435646506939017
000490 54 02 f1 fc 1b c6 c2 bf f8 64 82 98 82 3a 63 3f
       -0.14667081690460526 0.0023472357461967706
0004a0 c8 35 e1 56 54 a6 96 bf b4 89 ef e0 99 cf c2 3f
       -0.022118871500699716 0.14696048243702153
0004b0 b7 94 d5 07 56 8c d3 bf 8d 1c 0d 1b e6 f6 c3 3f
       -0.3054404331690636 0.15597225495205116
0004c0 61 fb 22 b4 4a 09 c7 3f 8b be 42 9b 40 94 ae bf
       0.17997106357321527 -0.05972482581398449
0004d0 fc 04 30 af e9 0e b0 3f b1 42 ac b3 d3 5e d0 3f
       0.06272755171814376 0.2557877783411114
0004e0 f6 f9 10 94 48 b3 8e bf c7 ed 4a 52 99 43 ce 3f
       -0.014990393656373318 0.23643795507619655
0004f0 40 1f aa 09 40 70 cb 3f fc b3 ca f0 22 4e b0 bf
       0.21436310264493308 -0.0636922681685092
000500 9f 1b 41 d0 a7 7f cb bf ac 56 4b 6e f0 86 d8 3f
       -0.2148332373492083 0.3832360341160477
000510 af d7 10 f9 59 29 86 bf 37 d3 a0 25 60 d7 c7 bf
       -0.010821059144386995 -0.18626024091067858
000520 68 71 93 85 de 6a d7 3f 1e ab 9e f4 8c c0 cd 3f
       0.36589777988935746 0.2324386782105074
000530 c9 cc 68 d6 47 f0 dc 3f 11 bf 2c 22 fe 22 da 3f
       0.45216556490340715 0.4083857854593456
000540 c4 ea a6 23 94 ea a5 3f 80 16 f8 ce 5e a4 d7 bf
       0.04280531821446723 -0.3694073697264244
000550 6c 55 eb 67 46 f4 c7 3f 61 be 30 77 d5 14 d9 3f
       0.18714218210395062 0.39189659728706344
000560 7f 97 8d b1 ca 78 c9 3f 0a 70 d8 28 20 7b d3 3f
       0.19899877233109106 0.30438999165357983
000570 5f 5b 9e 43 3e 44 c2 bf b4 4d a3 0c 9b a3 d4 bf
       -0.14270761777580795 -0.3224856971184764
000580 4c 6f 99 a2 2d 46 de bf 55 6b d2 ed 59 38 d9 bf
       -0.47303334120600904 -0.39406440949249105
000590 2d 37 4f 42 91 aa b0 bf ff d2 d1 05 ee 04 b6 3f
       -0.06510265225298602 0.08601272241669376
0005a0 2b 33 12 ea f5 94 a9 3f c6 07 34 ef 14 bb ad bf
       0.04996460420907164 -0.05806794567071409
0005b0 6e 35 a5 2e 4c 66 ca 3f 2e dc 4b 46 8e 06 d2 3f
       0.20624687459568797 0.28165013184429
0005c0 08 8e 95 72 fe fb d0 bf 41 f7 c7 95 14 80 c7 3f
       -0.26538048925269253 0.18359620393305856
0005d0 52 fa 4c 4f 25 3a bd 3f 43 32 08 92 73 b6 dd bf
       0.11416848360111345 -0.46426095257701067
0005e0 07 bd f2 fc a2 d4 c8 3f f4 18 db ba 16 65 c0 bf
       0.19398915625559018 -0.12808498500653054
0005f0 e0 bb 59 f1 b2 9e ca 3f e5 50 a0 f7 04 96 a7 bf
       0.20796810898488527 -0.046066432216464816
000600 37 cb 45 bf cc 6a d8 bf d7 84 8d b9 19 ea c0 3f
       -0.38151854208915686 0.1321441799182483
000610 f0 92 ef 1b c5 e3 c8 bf
       -0.19445098747305378

theta_2 f8 [15, 15]
000000 43 af 6d 2d 51 5a d0 bf 63 59 68 55 41 91 c7 3f
       -0.2555125182759534 0.18412033720296525
000010 7d f4 7c 73 79 fc cb bf 81 9b ad 12 b0 70 d1 3f
       -0.21864240778987556 0.2725029165653084
000020 0d b6 57 15 04 c5 d1 bf bc 9d d4 33 9a 2e d3 3f
       -0.2776498993324317 0.299719381919626
000030 62 f1 a8 8a 94 5a c7 bf 8a 1c 5a 30 eb 53 db bf
       -0.1824517895746665 -0.4269969913661461
000040 c0 72 73 fa 79 eb cf bf 50 46 85 45 6b d0 dd 3f
       -0.2493736718087316 0.4658458880340719
000050 99 e5 ba fc 3c 4d d6 3f 8c c2 eb 71 be 58 d4 3f
       0.34846424751921173 0.3179164993771699
000060 46 ff 6f 46 c0 f4 d0 3f 29 f6 c0 6c 4b e7 b7 bf
       0.264938420092211 -0.09337302594300269
000070 47 17 6b 8a c2 6f c5 bf d8 92 84 b2 bd 17 d2 3f
       -0.16747314223010276 0.28269903596291845
000080 71 26 19 47 e0 91 d9 bf 3f 4e 4d 6b 2f d1 d2 bf
       -0.3995285696333673 -0.29401765326221957
000090 ce e8 8d b4 f2 3f ca bf 6c fa e7 42 f8 f4 50 bf
       -0.2050765401471097 -0.0010349678447024958
0000a0 0a 97 9a 10 0f da d6 3f b6 35 a4 37 dd 9e b5 bf
       0.35705925580474285 -0.08445532425340371
0000b0 e2 a5 c4 3e fa be d3 3f 63 dc 40 bd 02 b9 b6 bf
       0.3085313427896762 -0.08876053924983433
0000c0 45 90 25 98 b1 a5 d1 bf c8 ad d8 6a 20 14 cc 3f
       -0.2757381425674377 0.21936421601399858
0000d0 d4 22 71 a3 1f f3 d3 3f 30 ba 5a 97 ec c9 d0 3f
       0.31171408616186835 0.2623244741506907
0000e0 13 cd ad 9f d7 34 d5 bf 66 ac b4 52 2d 23 d2 bf
       -0.3313502368320808 -0.2833970363305468
0000f0 1b 4b 83 b4 b3 23 c8 3f 02 39 86 8f 4b 4a cb 3f
       0.18858953775505757 0.21320480831168004
000100 6b 0e 8a 97 1f df db bf c9 ce c7 b4 ec 86 d9 3f
       -0.4354933719516569 0.3988601460871278
000110 8c d7 0a a2 f4 09 8f 3f 35 a6 ed 98 e9 3e d1 3f
       0.015155707545414086 0.2694648736420249
000120 4e 05 a0 f3 5f 05 a9 bf 54 53 09 9c 44 ff a2 3f
       -0.048869131554975284 0.037103790328422065
000130 cd 6b 41 64 5d 1a bd 3f 2a 1b e2 c2 d3 19 d5 3f
       0.11368354509015362 0.32970136672558914
000140 26 c2 4b 03 df 65 ab 3f ce e3 c7 fe e3 a8 dd bf
       0.0535115901492456 -0.4634332645505851
000150 84 07 69 ca 2e d6 d3 3f 22 6d eb 66 b0 29 db 3f
       0.3099476792013933 0.4244194989275504
000160 88 23 ea d0 c6 40 cf 3f 22 87 eb 8f dc 6a d6 bf
       0.2441643257227748 -0.3502723126858759
000170 f2 af 45 2d c6 f2 c0 3f 5f 53 e1 f4 44 47 c0 3f
       0.13240887842709942 0.12717496830978356
000180 38 df a6 c2 74 0d d9 bf 47 d0 d2 f3 77 61 c4 3f
       -0.39144629487008187 0.15922450452274203
000190 dd cc 12 1b 88 67 d4 bf 99 69 fc 86 29 8a da 3f
       -0.31881907123461223 0.41468275243973945
0001a0 b6 2d cb 65 36 99 cd 3f 40 b6 6f 26 c8 67 a0 bf
       0.2312381741561304 -0.032041792575779215
0001b0 0a ce d4 70 02 23 da 3f b5 e2 b6 fd db a1 db bf
       0.40838681238821606 -0.43175411011501846
0001c0 3e be e8 ec e0 67 c1 3f 61 cc 0f 2d 35 e3 d2 bf
       0.13598262374715547 -0.2951176586204323
0001d0 76 23 51 8c 3a 67 d7 bf 35 fa e2 85 94 2f d4 bf
       -0.36567558005167855 -0.3154040629850983
0001e0 16 a8 07 41 8a 1a bb bf e3 c9 68 6b 6b 1c c7 bf
       -0.10587371909755947 -0.18055479759784906
0001f0 97 d2 94 08 45 dd a9 bf 79 1f 0b 22 3d 8b ad bf
       -0.050516278550650266 -0.05770293274468847
000200 95 38 5d 1b ef 87 de bf 4c 99 ca b3 88 1c 8b 3f
       -0.4770467536190009 0.013238018023298402
000210 1d 1f c3 f7 16 ad bc 3f 9f a5 02 47 2c 68 d9 3f
       0.11201613949662854 0.39698321280101284
000220 61 53 75 f0 40 f8 8c bf 2d 17 ed 13 a5 bb d3 3f
       -0.0141453812963534 0.308327931841961
000230 65 fe 51 d0 9f 32 da bf be d7 cd 21 85 4e ae bf
       -0.4093398603799641 -0.059192810417627126
000240 90 b8 2d bd f9 02 c6 3f b3 10 27 9f f3 12 c8 bf
       0.17196580636249736 -0.18807835837481476
000250 c2 81 ba f9 77 b5 c3 bf 00 f6 60 60 75 63 95 3f
       -0.1539754838349961 0.020887216575138368
000260 5b b6 00 cf fe 60 d9 bf 13 5d 34 f6 36 cf d1 3f
       -0.39654512610545617 0.2782723812428724
000270 c3 52 e2 13 c4 7d c5 bf 8b f2 26 4b 89 b8 c8 bf
       -0.16790057154562107 -0.19313160104310997
000280 af e6 71 d3 13 23 d4 bf ed 0a 8e 19 83 f5 d6 3f
       -0.314640957345186 0.3587348699149249
000290 0f f6 c2 59 13 f1 d3 bf 05 0c a9 6f e2 b5 c4 3f
       -0.31158908620622666 0.16180067493596098
0002a0 78 82 55 e4 40 40 d3 3f 03 a4 7d 2e 88 0f cd 3f
       0.3007967214416918 0.22703649778421217
0002b0 5f 39 c8 30 de a0 d1 bf 1b af e1 b9 3f ad cf bf
       -0.2754435993564552 -0.24747463775872167
0002c0 58 20 dd 61 38 f8 b0 bf fd 7d 8a cb 95 cc c7 bf
       -0.0662875403332931 -0.18593094290280013
0002d0 56 0f dd 68 56 86 aa 3f 39 c9 41 31 54 94 70 bf
       0.05180616407463272 -0.004047707439996545
0002e0 fd ba 39 cd 45 7c ba bf 6b b7 a4 6c 49 e1 d5 3f
       -0.10345875034702696 0.3418754158945975
0002f0 ea b3 bc ad 88 77 d8 bf 91 65 47 4a a5 19 9c bf
       -0.38229577032580997 -0.027441580446838258
000300 a1 c0 5e 45 51 5c ac bf b3 06 8f 11 e7 a0 bf 3f
       -0.05539182636073404 0.1235489290111456
000310 a0 d1 65 0d 15 33 c9 3f 58 46 88 f3 95 2a ca bf
       0.1968714061182597 -0.20442461386896826
000320 f4 2a a4 9a fa 96 b7 3f 6b b3 f2 0e 55 2f dc 3f
       0.0921475055257977 0.44038893184443023
000330 0a 9c 88 40 a7 55 de bf d2 bd f1 da 5f 0d be 3f
       -0.4739778642855873 0.11739157767600908
000340 92 6a 2b f9 f2 76 cb 3f 30 da ea aa c7 db d0 3f
       0.2145675388954556 0.26341430369521657
000350 1f 62 8a f2 2a 07 cb bf 9e 6e 1d 87 76 a6 d1 bf
       -0.2111562427787854 -0.2757850951654549
000360 42 cb 17 62 91 84 a3 bf b3 22 73 df ed 84 dd bf
       -0.038120787834393 -0.4612383539320419
000370 11 1b 15 59 e8 db b5 3f af 8f 10 1e 5b 44 b6 bf
       0.08538677382339822 -0.08698052867890625
000380 f6 e0 db 95 c3 56 b7 bf 21 ce 82 d7 31 f5 ae 3f
       -0.09116766365685067 0.060464437062730754
000390 a1 c4 88 98 8e 36 bb 3f 3d c2 f1 a7 ce 9c de bf
       0.10630122398358079 -0.47832075501267807
0003a0 4a 4a 4c 25 ed c0 c6 3f 89 7b 8f 93 ef 36 d8 3f
       0.17776264496986222 0.37835301790431025
0003b0 0a f3 77 23 92 3c 64 bf 17 a3 40 55 dc 7e d6 bf
       -0.002470288683751658 -0.3514929611724695
0003c0 d2 cd 6b e7 b5 e3 b4 bf a5 a7 96 54 e4 1c b4 3f
       -0.08159958743981768 0.07856585564755265
0003d0 07 d8 01 40 a2 4c d4 3f 19 9c f8 27 03 db c2 bf
       0.31717735529616714 -0.14730872585025237
0003e0 47 f0 87 74 cb 4f a7 bf 59 a2 a4 34 14 b3 d4 3f
       -0.045530660605408495 0.32343011036804153
0003f0 c7 70 34 a2 a5 78 9a 3f d7 4f 1a 61 96 21 d5 bf
       0.02585085680503665 -0.330175013377127
000400 d5 4a 55 9e a2 f9 cb bf 83 fc af cf f7 f7 8b 3f
       -0.21855576258766143 0.013656555200212367
000410 22 ba 5d ab 1f 69 d3 bf 37 af 5a d9 61 c1 ca bf
       -0.30329124197933954 -0.2090265570926648
000420 05 fc 7a 77 28 5d d4 3f a5 bc 25 2a f0 d3 b8 bf
       0.31818591754921527 -0.09698391942014213
000430 3e 09 3a 53 59 e3 b5 bf de ae 7d 15 c9 b6 d7 bf
       -0.08550031930829946 -0.37053134058690584
000440 42 bf c7 1f 2e b5 d5 bf ff 60 e9 25 33 e0 b0 bf
       -0.3391833601335642 -0.06592101741387422
000450 00 c9 63 b6 02 b6 c3 3f 04 28 6f ce 9b ec d2 bf
       0.15399202256919153 -0.2956914440115954
000460 5c 5a 7a 18 a2 f3 ba bf f6 40 48 6c b6 6b da 3f
       -0.10528004739385594 0.41282425474584217
000470 6c 35 6d ea 19 cf d4 bf 56 c5 e6 88 9f 52 d9 bf
       -0.32514045613500886 -0.39566791886598673
000480 32 83 1a 99 d2 d6 c4 bf 92 54 ef eb 65 02 d0 3f
       -0.16280586696395855 0.25014637032047304
000490 cc b1 8c 79 7b ca ba 3f 7f fe 9b 22 12 d1 c7 3f
       0.10465213506240117 0.18606783571157234
0004a0 cb 37 0d aa 1c 2d b2 3f 82 2e 27 5c 96 bf d1 bf
       0.07100085403109728 -0.2773185634548342
0004b0 fd 47 01 56 37 9f d0 bf ee 88 d8 67 56 04 bb 3f
       -0.259717782964003 0.10553493533419431
0004c0 d3 08 6f 06 c7 24 d3 3f 93 68 2e c4 55 0a cc bf
       0.2991197169141177 -0.21906539992489069
0004d0 a8 26 c3 77 06 00 d2 3f 82 b3 c5 0b cb 67 bc bf
       0.2812515420488162 -0.11095875775727218
0004e0 40 7f c4 83 da a3 d7 bf 2e dc b6 6e 7c b8 de bf
       -0.3693758284371036 -0.4800101357645329
0004f0 22 89 fd 02 4b dc cb 3f d9 d0 a2 58 48 4f b2 3f
       0.2176603092767176 0.07152225650753809
000500 1c 3a ac 96 eb 09 ca 3f 24 36 eb 48 ac 20 c2 bf
       0.2034277425486416 -0.14162210045326262
000510 c6 09 f1 1b c9 4f ba 3f 60 08 c0 4f 89 ae a2 3f
       0.10277993137518768 0.03648785685074141
000520 f4 8a 49 2c 96 54 91 3f 37 63 97 b9 4b e9 d7 3f
       0.01692423482235035 0.37361424564510365
000530 89 43 f5 14 a1 3a a1 bf 5a 45 5b 8a 5c 90 a7 3f
       -0.03365043049655642 0.04602326573297928
000540 03 53 7c 83 2f 50 ba bf 3f cc aa c9 10 87 d6 bf
       -0.10278603515719102 -0.35199374860821203
000550 2a 65 37 63 81 fd cb 3f 34 f1 e8 76 e4 b3 75 3f
       0.21867387146520773 0.005298511924191996
000560 4d a9 6c b9 1b c1 d2 bf 3d 20 96 1a f5 84 de 3f
       -0.29303639514786967 0.4768650779374218
000570 5b fd eb 53 90 5b dc bf 6b ed 55 31 81 80 c0 bf
       -0.44308860965243974 -0.12892165097205618
000580 03 cc 99 ae 5a 2d c7 bf 8b 73 82 df 62 b1 ba bf
       -0.18107160115650353 -0.10426919895912883
000590 5e 70 aa 62 eb 05 cc 3f b1 33 03 82 a1 af cb 3f
       0.2189306480185022 0.21629732940928428
0005a0 d5 52 0f 98 c3 fc c5 bf 8b 0a 9b e5 54 78 c0 bf
       -0.17177624630735147 -0.12867222987377533
0005b0 bd 69 5e c6 84 02 bb 3f ec 3c f3 b8 ef 97 dd bf
       0.10550718157757095 -0.4623984628824036
0005c0 c9 f1 b1 4f 71 9b d1 bf e6 f8 4f c5 5c ff dd bf
       -0.2751124647400301 -0.46871108311451193
0005d0 8b 7e e1 c4 5f 87 d8 3f 64 90 62 4c 3f f8 d5 bf
       0.3832625792183328 -0.3432768102595729
0005e0 3d 2c 96 6b 0f b3 db bf be 24 03 bb 65 40 bc bf
       -0.4328039694452775 -0.1103576261113117
0005f0 a0 6f 79 aa b8 2c 93 bf 08 84 77 a7 d1 05 aa 3f
       -0.01872528591626088 0.05082564515374349
000600 11 c1 10 1a 6f 6f ae bf 03 a6 e2 da 72 ff c5 bf
       -0.059443923885171064 -0.1718581742073156
000610 b4 33 97 c2 53 d7 a7 bf 20 45 84 34 aa 2a aa 3f
       -0.046564691070308056 0.051106757078864584
000620 35 cf 8a c0 be 56 d7 bf d7 b3 3b 13 36 b5 d6 3f
       -0.3646695022864493 0.35481025579684683
000630 7f 8e 8b 0c 50 04 da bf bf fa 78 c7 4d d2 d8 3f
       -0.40651322579490307 0.38783592681640394
000640 28 b7 8c c9 1c 4e d3 bf ea 20 16 ab 12 06 d8 bf
       -0.3016426056154722 -0.37537066180858736
000650 b8 31 07 59 f2 a9 bc 3f a3 52 47 46 1c 52 cb 3f
       0.11196818040406853 0.21344331199238295
000660 95 90 79 02 4a 48 cc bf 0d ea 99 43 ad 20 d4 bf
       -0.22095608826487437 -0.3144944343727339
000670 ba b6 22 38 29 fc bb bf 42 06 36 5c 98 60 d1 3f
       -0.10931642170427383 0.2715207005022401
000680 2d 1c 8c e2 c0 59 bc 3f 80 b9 80 6b 95 82 69 3f
       0.1107445290655142 0.00311402495937968
000690 0f b6 71 d5 86 04 d8 bf 29 7f 9b 3c 9e a7 d5 bf
       -0.3752762874999868 -0.3383555976742963
0006a0 93 81 3c 52 cc 68 d3 bf 35 fd ea 98 4e 50 cf bf
       -0.3032713702287079 -0.2446382757825433
0006b0 1d b6 80 54 f7 a0 da 3f 44 d5 d9 1d ce 1f dc 3f
       0.4160745930883836 0.4394412318718717
0006c0 48 68 d8 93 80 57 c4 3f 00 f6 dc 17 60 3f d1 3f
       0.1589203569317894 0.2694931252516142
0006d0 c8 0b f8 25 a9 37 b6 bf 5a 44 d5 4e 1f 9d df bf
       -0.0867868154237349 -0.4939649839262238
0006e0 11 8d c2 31 cf 7c b2 bf 52 cb 0e 5e be cb 82 3f
       -0.07221693959086319 0.009177672620216324
0006f0 38 e6 25 37 02 80 d3 bf d8 a9 bd f2 bc 8f c4 bf
       -0.30468802819777663 -0.16063653805333789
000700 b7 d1 ed 7e 7b ef d3 3f
       0.3114918460408051

theta_3 f8 [15, 1]
000000 f3 f0 d1 da 8b ac d9 bf 92 31 b0 a0 bb 8e d9 bf
       -0.40115639084957805 -0.39933672611439264
000010 89 3e 16 17 aa 5e d6 3f ea 88 d0 5d 59 45 bc 3f
       0.3495278573472907 0.11043318310160868
000020 f7 60 bf 5d 4e 84 dc 3f be 50 f4 c7 fb 59 c0 bf
       0.44557532458340127 -0.12774607909580554
000030 14 c5 0e 3a 3b 59 d6 bf 89 98 48 92 58 67 e4 bf
       -0.34919624967285867 -0.6376154763318179
000040 b5 54 32 55 39 a7 d0 3f 2c ce e5 5f aa f5 d1 3f
       0.26020654029828033 0.2806192337513689
000050 c5 df ab dc cf b3 dc 3f 71 de 51 dd c0 13 c1 3f
       0.44847485113086477 0.13341532522803193
000060 30 0d 14 69 39 cb e0 bf 94 81 0e eb d2 8f de bf
       -0.5248076488791522 -0.4775283141589395
000070 a0 4c fa 10 ea 2d d1 bf
       -0.26842738779050457

bn1.weight f8 [15]
000000 d7 5d 59 47 44 72 f0 3f 95 95 72 73 e9 7c ee 3f
       1.0278971468995814 0.952748036845764
000010 85 98 e8 69 f9 bf f0 3f 69 e2 32 20 ee 75 ee 3f
       1.0468687188199806 0.95189577378103
000020 da 98 de 42 9c e8 ee 3f d5 d6 ef 43 e0 bf ee 3f
       0.9658948236508664 0.9609223677532223
000030 23 d0 34 9d 6e 9d ee 3f 28 ec 52 55 9f 26 f0 3f
       0.9567177839694562 1.009429295822665
000040 36 e1 3e 1a f2 a3 ef 3f 52 b8 65 ae 1c 82 ee 3f
       0.9887629044160693 0.9533828169057961
000050 88 17 fa 15 0a bb f0 3f af 59 59 93 77 40 ef 3f
       1.0456639154885767 0.9766195180807723
000060 2b 23 54 be 27 c6 ee 3f 12 e3 b1 23 69 5b f0 3f
       0.9616888730389282 1.0223170656519796
000070 ec df dc 82 b8 be ee 3f
       0.9607813411630537

bn1.bias f8 [15]
000000 f5 24 0e a8 92 db a6 3f 26 20 9f 03 6d 57 a5 3f
       0.04464395810561853 0.04168263119896691
000010 96 86 b7 48 4e 71 a7 bf 65 16 e3 db 0c 33 a8 3f
       -0.0457863296285385 0.04726448234718531
000020 80 28 de bc c4 c4 a6 bf c3 85 19 25 bd ca a7 3f
       -0.044469974570419346 0.046468649653216974
000030 2e 40 89 aa bf b1 a6 bf c2 27 c6 43 1c 97 a7 bf
       -0.044324864928626403 -0.04607475592918277
000040 af 71 11 bc 52 f5 9c 3f d2 30 b9 67 d0 08 a6 3f
       0.028279583672302596 0.04303599611429977
000050 81 62 77 aa f9 27 a8 3f 10 b3 b7 9a 77 a8 a7 bf
       0.04717998700988791 -0.04620717776911054
000060 31 37 41 76 d1 fe a3 3f 2c 93 8c 6a 14 ad a7 3f
       0.03905348366298112 0.046242368704304176
000070 ee fc 78 d6 37 00 90 3f
       0.015625832047814585

bn2.weight f8 [15]
000000 cd a0 4e 78 c9 31 ef 3f 88 83 40 c3 85 92 ee 3f
       0.9748275136708117 0.9553860486522447
000010 1b fc d1 ed 9a c8 ef 3f 90 25 b1 be 30 47 f0 3f
       0.9932379383971041 1.0173804711251684
000020 07 d4 01 52 f9 49 ef 3f a7 73 34 95 b6 c6 f0 3f
       0.977780018015097 1.048513968307114
000030 df e0 6e 7b 99 c6 f0 3f f9 75 f8 98 8a c2 f0 3f
       1.04848621574461 1.0474954581653704
000040 59 81 e1 ef 39 c1 f0 3f 42 6c d0 3c ff ff ee 3f
       1.04717439368695 0.9687496364380268
000050 8a 66 e6 8a 55 60 f0 3f 7a 32 a6 dc c7 af f0 3f
       1.023519079759725 1.0429152125463177
000060 84 75 38 3f c9 c3 f0 3f 66 42 79 e4 91 86 ef 3f
       1.0477993459274737 0.9851769888283115
000070 6a cf 7f 52 f6 cb ee 3f
       0.9623977290452619

bn2.bias f8 [15]
000000 45 fe c3 fe 89 00 a9 bf 07 c9 d1 b3 a1 f9 a8 bf
       -0.048832237576786265 -0.04877953834592757
000010 19 69 2a 06 b9 04 a9 3f 0c f4 b1 bd 67 20 a9 3f
       0.048864156725544734 0.04907535734762555
000020 d3 1e 02 b8 87 01 a9 3f 9e b7 bc 6b dd 38 a9 bf
       0.048839799129437055 -0.04926196994925579
000030 7e d7 09 6a cb 1c a9 bf 3e a1 e3 5d 9d 13 a9 bf
       -0.04904781026281933 -0.04897777339084762
000040 a2 ae 15 0f d4 22 a9 3f 1c c5 12 13 39 f9 a8 3f
       0.04909384426249842 0.04877642019108405
000050 f8 a6 5d 0a 4c 15 a9 3f 9e 9c e8 98 4e 30 a9 3f
       0.04899060846839903 0.04919667831955475
000060 10 c4 cd e8 42 16 a9 bf 41 bc a2 ae 70 04 a9 bf
       -0.048997965734891236 -0.0488620007685019
000070 4e 7f 10 c8 82 f4 a8 bf
       -0.04874046985810186
